channels_last
X:	 7
Y:	 6
T:	 240
F1:	 8
F2:	 16
D:	 2
D:	 4
Model compiling
Model compiled
Model: "model"
_________________________________________________________________
Layer (type)                 Output Shape              Param #   
=================================================================
input_1 (InputLayer)         [(None, 7, 6, 240, 1)]    0         
_________________________________________________________________
Conv3D (Conv3D)              (None, 7, 6, 240, 8)      512       
_________________________________________________________________
batch_normalization (BatchNo (None, 7, 6, 240, 8)      32        
_________________________________________________________________
DepthwiseConv3D (Conv3D)     (None, 1, 1, 240, 16)     672       
_________________________________________________________________
batch_normalization_1 (Batch (None, 1, 1, 240, 16)     64        
_________________________________________________________________
activation (Activation)      (None, 1, 1, 240, 16)     0         
_________________________________________________________________
average_pooling3d (AveragePo (None, 1, 1, 60, 16)      0         
_________________________________________________________________
dropout (Dropout)            (None, 1, 1, 60, 16)      0         
_________________________________________________________________
DepthwiseConv3D-Separable (C (None, 1, 1, 60, 16)      256       
_________________________________________________________________
PointwiseConv3D-Separable (C (None, 1, 1, 60, 16)      256       
_________________________________________________________________
batch_normalization_2 (Batch (None, 1, 1, 60, 16)      64        
_________________________________________________________________
activation_1 (Activation)    (None, 1, 1, 60, 16)      0         
_________________________________________________________________
average_pooling3d_1 (Average (None, 1, 1, 7, 16)       0         
_________________________________________________________________
dropout_1 (Dropout)          (None, 1, 1, 7, 16)       0         
_________________________________________________________________
flatten (Flatten)            (None, 112)               0         
_________________________________________________________________
dense (Dense)                (None, 4)                 452       
=================================================================
Total params: 2,308
Trainable params: 2,228
Non-trainable params: 80
_________________________________________________________________
Input Shape:
 (21312, 7, 6, 240)
Output Shape:
 (21312,)
Input Shape Revised:
 (21312, 7, 6, 240, 1)
Epoch 1/100

------------------------------------------------------------
Sender: LSF System <lsfadmin@n3h37>
…
